Codigo/TimeVQVAE/saved_models/stage1-supernova_light_curves.csv.ckpt (torch, 765368 bytes, 57 tensors)

autoencoder.encoder.0.weight f4 [128, 50]
000000 2a 4e 89 bd 32 cc a9 3b 7c 30 0a 3c c8 15 53 bd
       -0.06704362 0.0051818127 0.008434411 -0.051534444
000010 84 f8 1c bd fb de 99 bd e0 08 a5 bd c1 b1 5c bc
       -0.03832294 -0.07513233 -0.080583334 -0.013470114
000020 a6 28 48 bd 46 02 44 bd d8 48 a2 bd f6 64 e1 3b
       -0.04886689 -0.04785373 -0.0792405 0.0068784906
000030 ed b2 58 3c f2 e6 e2 3b 81 fe a5 3c be d0 69 bd
       0.013226253 0.0069245035 0.020262958 -0.057083838
000040 6e 5f ba 3b 13 51 06 bc e3 f1 98 bd 4d 9e d2 bc
       0.0056876456 -0.008198041 -0.07468011 -0.02571025
000050 c3 b7 00 bd 2c 3b 8b ba bd 7d 07 bd dc 0c 47 bd
       -0.03142525 -0.0010622493 -0.033078898 -0.048596248
000060 75 44 8c bd 8d 46 13 3d 6e c3 ab bc 9f a5 c3 bc
       -0.06848995 0.035955954 -0.020967212 -0.023882685
000070 09 95 dc bc b9 09 6c 3c 55 62 f0 3c 95 99 29 3d
       -0.026926534 0.014406615 0.029343763 0.041406233
000080 fd 4b 7c bd 29 e8 d7 3b 1e 4c a0 3c ff f4 88 bd
       -0.061595906 0.006588955 0.019567546 -0.06687354
000090 13 4d 17 3d 0e 19 0f 3d 82 c9 40 3d 0f db 23 bb
       0.036938738 0.034936003 0.047067173 -0.0025002395
0000a0 d8 b1 89 3b a7 bc 67 3c 40 81 07 3d 44 61 23 bd
       0.004202109 0.014144099 0.033082247 -0.03988768
0000b0 82 bf 3a bd d8 ce c0 3c 09 b5 02 3b 6a e9 16 bd
       -0.045592792 0.02353613 0.001994433 -0.036843695
0000c0 06 0d de 3c 45 9f ca bc cc 47 87 3b 06 af 72 3b
       0.02710582 -0.024734149 0.004128432 0.0037030592
0000d0 3c 4e 92 3c df d7 88 3c 31 b6 e0 3c f3 9e 3d 3d
       0.01785957 0.016704498 0.027430626 0.046294164
0000e0 d7 7a 87 ba 35 a7 fb bc 23 ce 87 bb ba d1 d7 3b
       -0.0010336292 -0.030719379 -0.0041444465 0.0065862807
0000f0 c4 d3 fb 3c 71 cd 60 3a e0 ea 3a 3c 03 09 2b 3d
       0.030740626 0.0008575535 0.011408538 0.04175664
000100 e4 ad 84 bc ae 41 5a 3d 76 b4 c6 3d 55 19 82 3d
       -0.016196199 0.053285293 0.09702389 0.06352488
000110 33 37 af 3d 78 f7 b3 3d 44 3b ac 3d 8f 98 41 3d
       0.0855545 0.08787435 0.084097415 0.04726463
000120 74 1a 5a bc 46 91 40 3b 93 b8 13 bd bd ec a4 3b
       -0.013311971 0.0029383465 -0.036064696 0.005033104
000130 1a 30 ec 3b 23 cc 97 bd a4 de 6f bd fc 1c 4d 3c
       0.0072078826 -0.07411983 -0.058561936 0.012519117
000140 b5 4c 9a bc 87 25 43 3b 17 75 a0 bc 4e 5f 8e b6
       -0.018835405 0.0029777007 -0.019587083 -4.2430247e-06
000150 d2 e2 b1 3a 89 42 84 bc 92 43 95 bd f8 ed 71 bd
       0.0013571626 -0.016145008 -0.07288279 -0.059064835
000160 b7 db 16 bd 29 51 aa bd a6 2a 29 bd 89 12 82 3c
       -0.03683063 -0.08316261 -0.04130044 0.015877979
000170 14 d1 8f 3c 96 6a b2 bc af 10 1b 3c 32 3a 0e bc
       0.01755575 -0.02177934 0.009464427 -0.008680867
000180 44 8f 78 bc 60 1e 50 bd b3 61 ac 3b b1 4a 05 bc
       -0.015170876 -0.050810218 0.00526067 -0.008135484
000190 48 8f d6 bd 4a 92 48 ba 47 ed 94 bd 2a 2c 1d bd
       -0.104765475 -0.00076511933 -0.072718196 -0.038372196
0001a0 77 1e 12 bc 7b 77 cb bd d9 fe 0a bd a3 99 ef bd
       -0.008918396 -0.099348985 -0.033934448 -0.11699226
0001b0 8e 46 b2 bd be 9b 97 bc 8c 7c 9f bc 2a 2c af bd
       -0.087048635 -0.01850688 -0.019468568 -0.085533455
0001c0 1a a1 b9 bd 4d d8 80 bd 14 d0 a0 bc f2 07 7e 3a
       -0.09063931 -0.06291256 -0.01963047 0.0009690515
0001d0 a4 c2 74 bd c5 1c f6 3c 88 2c 6e 39 09 64 72 3c
       -0.059755936 0.030043015 0.00022714038 0.014794358
0001e0 ee f3 87 bb c6 e7 d3 3c 45 b7 0a bd 96 1d ab bc
       -0.0041489517 0.025867354 -0.033866186 -0.020888131
0001f0 52 b7 e1 ba 7c 59 62 3d d5 bc 20 3d e7 10 20 bb
       -0.0017220771 0.05526112 0.039242584 -0.0024424137
000200 5c 63 b6 3c d5 80 c7 bc 4c 33 56 bd 82 20 ef 3c
       0.022264175 -0.024353424 -0.052295014 0.029190306
000210 65 2d fd 3a a7 61 1e 3d 86 0e 92 bd ff c5 9d bd
       0.0019315897 0.038667347 -0.071316764 -0.077037804
000220 5b 9f 60 3c 1c b1 53 bd f4 74 32 bc 1b 83 55 bd
       0.013709868 -0.051682577 -0.010892142 -0.052126985
000230 bf b3 26 bd 00 57 27 bd bf 90 c1 3c 39 a4 43 bd
       -0.040698763 -0.040854454 0.02362859 -0.047764037
000240 75 7d a8 bd 12 be ef 3c 97 a4 9b bd e9 a8 74 bc
       -0.08227054 0.029265437 -0.075997524 -0.014932849
000250 83 ac c8 3c fd 11 9d bd 5f 85 4c bc 62 3e dc 3b
       0.024496322 -0.076694466 -0.01248297 0.006721304
000260 b6 99 33 bd 06 28 15 bd f2 d5 88 bd 68 01 0c bd
       -0.043847762 -0.036415122 -0.06681432 -0.03418103
000270 2a 82 70 bb 63 cf 08 bd c5 1c e7 bc 22 54 ab 3c
       -0.0036698678 -0.033400904 -0.02821196 0.020914141
000280 a5 de 92 bc f5 fe 75 3c 9f 50 1c bd 5f 40 21 bd
       -0.01792843 0.0150144 -0.038162824 -0.03936803
000290 b5 34 2a 3d 7b 9b 41 3b f8 03 dd bc 74 2f 10 3d
       0.04155417 0.0029542136 -0.026979432 0.035201505
0002a0 87 40 46 3d 4f 68 a7 3c d9 3b 83 bd a3 82 0e 3d
       0.04840138 0.02043548 -0.064078994 0.034792554
0002b0 67 d2 f2 bc ba 4c 3f 3d 12 6b 94 bc 21 e4 06 bd
       -0.029641343 0.04670403 -0.018117461 -0.032932404
0002c0 46 79 57 3b bb 5a 4c 3d 27 78 e5 bc 78 1f fd bb
       0.003287868 0.049891215 -0.028011395 -0.0077246986
0002d0 4f 77 3c bd 7f d1 dd bc 59 8f c1 3c 30 77 0e bd
       -0.04601222 -0.027077435 0.023627924 -0.034781635
0002e0 ca db 6d bd 8a 1d 0b bd 47 62 31 bd 6d 9a 8c 3c
       -0.058070935 -0.033963718 -0.043306615 0.01716348
0002f0 1d 2d 2f bd 81 63 05 bd 9d d6 bb 3c ee a8 69 bd
       -0.042767633 -0.032565597 0.022929484 -0.05704587
000300 be e2 52 3c cf 8f 63 bd c2 f8 25 bd 24 f6 6c bd
       0.012871442 -0.05555707 -0.040520437 -0.057851925
000310 8b bb 82 3c 30 e9 4b bd f6 a0 46 3d ed 8d 48 3d
       0.015958568 -0.04978293 0.048493348 0.048963476
000320 06 32 e3 3b f0 df 46 3c b6 80 33 bd d7 59 5d bd
       0.0069334535 0.012138352 -0.04382392 -0.054040756
000330 af 5c d4 bc ed 05 13 bd 92 0a 0d bd 89 3e 8f bc
       -0.025923101 -0.035894323 -0.03443391 -0.017485874
000340 fb 14 67 bd 76 77 b9 bb 6a 6a bd bc 20 de 0c bd
       -0.056416493 -0.005659993 -0.023122031 -0.034391522
000350 21 91 57 3d 72 47 66 bc 30 eb 18 3c b3 d2 a9 3c
       0.05262864 -0.01405512 0.009333417 0.020730352
000360 ca 84 31 3d fe 44 3c 3d e7 8c 65 bb 39 63 34 3c
       0.04333953 0.045964234 -0.0035026611 0.011009985
000370 f1 45 1e 3d bb 37 20 3d 7e d4 96 bc 40 53 9d bb
       0.03864092 0.03911565 -0.018411871 -0.004801184
000380 76 ff 29 bd a1 cd 16 bc 71 05 37 3d 5f bf a5 bc
       -0.041503392 -0.009204299 0.044682924 -0.020232854
000390 23 fa cf bc 01 77 c4 bc 41 47 4e bd 30 d5 fe 3c
       -0.02538783 -0.023982527 -0.05036092 0.031107515
0003a0 97 2c 62 3c 96 6e 83 3c f0 ea 52 3a 66 62 54 bd
       0.013804576 0.016043942 0.00080458727 -0.051851653
0003b0 b6 93 0f bd 8f 2b 4d bc a7 63 32 3d fe 5a f6 bc
       -0.035052978 -0.012522592 0.043552067 -0.030072685
0003c0 40 37 42 3d 22 f7 4d bd 6c 19 0c 3d e3 5c 89 3c
       0.04741597 -0.050284512 0.03420393 0.016767925
0003d0 b9 e8 2d bd a5 e9 cb bb 81 f7 3b 3d 83 44 03 3c
       -0.04245827 -0.006222921 0.045890335 0.00801194
0003e0 50 1c 5a bd 9e 66 6f bc 75 83 a5 bc e1 70 73 bc
       -0.053249657 -0.014611868 -0.020204285 -0.014858455
0003f0 e8 f6 6d 3c f1 e4 4a bd 41 72 98 bd c9 3e a0 bd
       0.014524199 -0.04953474 -0.07443667 -0.07824475

autoencoder.encoder.0.bias f4 [128]
000000 38 bf f5 3c 00 bc 16 bf 8b e4 ee 3c 1a d2 4d 3c
       0.029998407 -0.58880615 0.029161712 0.012562299
000010 62 60 f5 ba d7 44 3f 3c 4d e4 1a bd 1b eb 76 bd
       -0.0018720741 0.011674128 -0.03781538 -0.060282808
000020 f3 06 16 bd 16 c2 ad be 45 78 2b bd 1c 53 ed 3a
       -0.03662772 -0.33937138 -0.041862745 0.0018106434
000030 9b b4 06 3e 5d d3 37 3d 17 0f 8c 3d 9c 41 a9 3c
       0.13154833 0.044879306 0.06838816 0.020661168
000040 37 ed 87 3c 8c 80 e2 bc e7 63 4a 3d 18 19 6d 3b
       0.016592605 -0.027649187 0.04941168 0.0036178287
000050 d3 14 19 be 22 93 57 3d bf a5 28 bc bf 98 49 b8
       -0.1494935 0.05263055 -0.010293423 -4.806439e-05
000060 99 40 da bd e6 26 97 bc ed 41 16 bf 28 81 1d 3d
       -0.10656852 -0.018451165 -0.58694345 0.03845325
000070 75 da 63 bd 88 69 e4 bc 8c 18 5e 3c 62 eb 07 3d
       -0.05562826 -0.027882352 0.013555657 0.033183463
000080 77 13 5d bd 70 8e e0 bd c4 4d 3b 3d 8f 1c 76 bc
       -0.05397364 -0.10964668 0.04572846 -0.015021457
000090 bc 6d 4f bd 17 95 70 bd 57 34 bd bd b6 ed 32 bd
       -0.05064176 -0.058735933 -0.09238499 -0.04368373
0000a0 9a f8 36 bd c3 f0 c4 bd 76 3c e4 bd ff ac 7d 3d
       -0.04467068 -0.09616234 -0.111443445 0.06193256
0000b0 02 49 4b bd d9 84 f3 3c 00 35 95 be bb bd 6b 3c
       -0.049630173 0.029726433 -0.29141998 0.014388497
0000c0 b9 55 5d 3d 07 79 6a 3c c6 b5 95 bd 83 32 b6 bc
       0.05403683 0.014311082 -0.07310061 -0.022240883
0000d0 27 6f ea bc 4c 8e 72 bd 4b a0 9c bc bb 69 b6 3c
       -0.028617455 -0.059217736 -0.019119402 0.022267213
0000e0 79 aa 9e 3d 17 70 34 bf 4e d6 1b 3d 97 a7 79 3d
       0.07747359 -0.70483536 0.038046174 0.06095084
0000f0 69 52 2c bc 7b 2a 18 bc 03 ff 6f 3d 2f e0 8a bd
       -0.010517695 -0.009287472 0.058592808 -0.06781041
000100 07 14 6f bc 12 72 39 bd 94 8f 27 3c 92 78 35 bd
       -0.014592177 -0.0452748 0.010227103 -0.044304438
000110 59 9c c0 bc 41 c8 1e bd 35 62 13 bf e3 9e 3c bd
       -0.023512052 -0.038765196 -0.5757173 -0.046049964
000120 ec a3 c2 3c e9 34 de bd 31 ec 0a bd d1 80 d0 bc
       0.023759805 -0.108499356 -0.033916656 -0.02545205
000130 66 46 f6 3c 8d 21 27 3c 0e 2a 0d 3b a2 4b 84 bd
       0.030062865 0.01020087 0.002153996 -0.06459738
000140 7b 38 18 bd 73 c9 12 bd e2 77 28 bd 42 87 0b 3f
       -0.03716324 -0.03583665 -0.041129954 0.5450326
000150 16 f3 3e bf f2 46 c1 be 4b 69 01 3d 46 8c 66 bc
       -0.7458967 -0.3774944 0.031594556 -0.01407153
000160 32 f3 15 be 92 7f a4 bc 35 15 09 bd e0 05 57 be
       -0.14643553 -0.020080362 -0.03346749 -0.20998335
000170 02 31 bd bc 3b fb a4 3d 61 98 04 bd 9c 0b 08 3d
       -0.023094658 0.08055731 -0.032371882 0.033214197
000180 c8 4f 23 bd 6b 71 85 bf f6 8d 29 be 76 6e c1 3d
       -0.039871007 -1.0425237 -0.1655806 0.09444897
000190 5e 77 bd be 08 8e 8c 3c 87 59 d5 3b 32 07 9c bd
       -0.37005132 0.01715757 0.0065109166 -0.0761856
0001a0 16 69 0d bd ad 95 42 3c f5 6c d7 be a1 ef 89 bd
       -0.034524046 0.011876506 -0.42075315 -0.06735159
0001b0 01 f0 19 bd 17 36 13 bd e8 f3 29 bd f1 5b f9 bc
       -0.0375824 -0.035940256 -0.041492373 -0.030439349
0001c0 73 91 3b be df 7a 44 b9 47 ba 06 bd f1 bd 3b bd
       -0.18317203 -0.0001873779 -0.03289249 -0.04583544
0001d0 31 9f e6 bc eb 23 96 be 7d e7 1a bc 22 90 09 bd
       -0.02815208 -0.29324278 -0.009454605 -0.03358472
0001e0 3d ec be 3c 5d 48 05 bd ca 40 27 be 28 4c 4c 3c
       0.023306007 -0.032539714 -0.16333309 0.012469329
0001f0 40 4c 6b bd f5 32 22 bd 85 b0 54 bd 29 e6 e2 bd
       -0.057445765 -0.039599378 -0.051926155 -0.11079056

autoencoder.encoder.2.weight f4 [64, 128]
000000 79 c0 dc bc 4e 95 24 bc 2b c7 86 bc 18 4e 8a bc
       -0.026947247 -0.010045363 -0.016452393 -0.016882941
000010 7e 7d 95 3b bc be b3 3c 6f c9 0e 3c 8e 15 cc 3b
       0.004562079 0.021941535 0.008715018 0.0062281555
000020 f0 56 c8 3b b3 7f f5 bc 4a ae d1 bb 35 5c d5 3c
       0.0061138794 -0.029968118 -0.0063989507 0.026044944
000030 b3 d1 f7 bc 15 a7 fa bc d8 39 9a 3b 8d 86 0c 3c
       -0.03025136 -0.030597249 0.0047066025 0.008577001
000040 cc a2 53 bc f4 2a cb bc 96 3a 96 bb 4e 5b ea bc
       -0.012917232 -0.024800755 -0.0045846207 -0.02860799
000050 72 4a 67 bb 5e 67 eb 3c d6 29 dc 3c e6 c7 f8 bc
       -0.0035292176 0.028735813 0.026875418 -0.030368757
000060 35 75 94 bb 44 30 fc bc cc e6 07 bc 01 06 01 3d
       -0.0045305737 -0.030784734 -0.008294772 0.031499866
000070 ec 68 25 3c ba 66 8b 3c a7 09 26 bd 84 dd a2 bb
       0.010095816 0.017016757 -0.04053655 -0.0049702544
000080 72 a6 b4 3c 9f c4 e0 3b 1d 1f a2 3c e2 83 19 3d
       0.022052024 0.0068593766 0.019790227 0.03747929
000090 a1 1f 17 bc 07 9f bb bb c2 ff fa bb 7e 3c fd 3c
       -0.0092238495 -0.0057257446 -0.0076598832 0.030912634
0000a0 b8 0a d2 3c 21 64 ad 3c 44 9a d9 3c 6e 81 40 3d
       0.025639877 0.02116591 0.026562817 0.046998434
0000b0 e5 2c 00 bd 31 0e f5 bc 81 2b ce 3b 10 6c 74 3c
       -0.031292815 -0.029913994 0.006291807 0.014918342
0000c0 60 11 c8 3c 88 0c 17 3c 43 83 1c bd 17 d5 ae 3c
       0.024422348 0.009219296 -0.03821112 0.021341844
0000d0 f8 3f f0 3b 3d 2a d2 bc c3 01 c8 bc 87 a8 01 bd
       0.0073318444 -0.025654906 -0.024414903 -0.03165486
0000e0 55 eb ed 3c 55 9b db bb 93 d0 24 3c 87 7c aa bc
       0.02904288 -0.0067018666 0.010059494 -0.020811332
0000f0 9f ee 44 bc 8d e4 f3 3c d9 f4 70 bc 50 d8 11 bc
       -0.012019782 0.029772067 -0.014706814 -0.008901671
000100 e9 a2 03 3d 9d 5c de 3b bd b9 5f bc 12 95 01 bd
       0.032137785 0.0067859427 -0.013655123 -0.031636305
000110 39 d2 d3 bc 3d af db bc 4b 08 3a 3b 87 19 1a 3c
       -0.025857078 -0.026816959 0.002838629 0.0094055
000120 a7 0c e5 3b 67 82 70 bc a3 5a 91 bc 08 03 ce 3b
       0.0069900337 -0.014679528 -0.017743414 0.0062869824
000130 38 ac 3f bc 44 87 97 3c 9b 7b 4a 3b df 98 d0 bc
       -0.011698775 0.018497117 0.0030896429 -0.02546352
000140 4c 63 c5 bb db 83 48 bc c0 09 44 bd 9d d9 5d bd
       -0.0060238 -0.012238468 -0.04786086 -0.05416261
000150 c1 dd 39 bd 50 b5 c1 bc cc 8f ef 3b 88 33 f1 bc
       -0.045377497 -0.023646027 0.007310843 -0.029443517
000160 5b 0b 44 3c d1 e7 9e 3c c7 8e 84 bc 8e 4e 70 3c
       0.011965598 0.019397648 -0.016181363 0.014667166
000170 06 40 b6 3c b6 bd f1 b9 7d 33 bd bb 53 23 0b bd
       0.022247326 -0.00046108448 -0.00577396 -0.033969235
000180 24 07 0b bd f0 1b 9e 3c b6 8a e2 3c 25 60 bd bc
       -0.033942357 0.019300431 0.027654033 -0.023117134
000190 e2 b2 7c bd 2c cf 1d bd da 74 07 3c 05 a4 ee 3c
       -0.061694033 -0.038527653 0.008267606 0.029130945
0001a0 0a b6 a0 bc f7 af 38 3c fb 8f 5d bc 79 af 0b bd
       -0.019618053 0.011272422 -0.013523097 -0.03410289
0001b0 04 f2 90 3b 89 b9 e6 bc 63 6d 2d 3c 40 74 ff 3c
       0.0044233818 -0.028164642 0.010585162 0.031183362
0001c0 fb 1a b2 3b 68 80 d4 bc c1 1c 0c 3d 25 4c 22 3b
       0.005435345 -0.025940135 0.03420711 0.0024764624
0001d0 7b 2b 8e bb 40 a5 73 bc 43 56 dc 3c d6 59 03 bd
       -0.0043386794 -0.014870942 0.026896602 -0.032068096
0001e0 2c 59 a6 bc f4 d0 01 3d 98 b5 30 bd fa a1 e7 bb
       -0.020306192 0.031693414 -0.04314193 -0.0070688697
0001f0 ff 7a ac bc a0 b5 a0 3a 67 12 9d 3c e0 48 45 bd
       -0.021054743 0.001226116 0.019173814 -0.048165202
000200 24 46 a9 bc 16 7c eb 3d a8 66 7e bd fa 78 f4 bc
       -0.020663328 0.11498277 -0.06210962 -0.029842842
000210 21 0a 55 3b 6d c4 ed bd 45 72 05 be 11 c2 bf bb
       0.0032507258 -0.11609731 -0.13031872 -0.005851992
000220 16 dd 90 3c cd ab 31 ba 05 8c 7f 3c c8 a6 22 3c
       0.017683547 -0.00067776145 0.015597348 0.009927459
000230 a5 22 4d bd a7 d7 0a bd 5e fe d7 bc 4b b4 a3 3c
       -0.050081868 -0.03389707 -0.026366409 0.019983431
000240 f8 1d f6 bd 4e be a4 bc b7 2f ac bc b8 da 2a bd
       -0.12017435 -0.020110276 -0.021018846 -0.041712493
000250 60 56 c7 3c e3 56 ed bc eb 92 b4 3c 12 e6 f9 bb
       0.024333179 -0.028972095 0.022042712 -0.0076263035
000260 ac c5 e4 bb d4 a7 eb bc b1 a1 9a 3e b5 e0 ef 3a
       -0.006981572 -0.02876655 0.30201486 0.0018301221
000270 04 ae 04 bd d1 83 e3 3c 22 67 8b 3c 7b cd 0a 3c
       -0.032392517 0.027772816 0.017016951 0.008471842
000280 88 19 89 bc c9 dd 91 bc f1 2f ff bc ae 9b c7 bc
       -0.016735807 -0.01780595 -0.03115079 -0.024366226
000290 4c 33 08 bd a9 fc 25 3c 13 12 10 3d d2 e6 cb bc
       -0.033252046 0.01013104 0.035173487 -0.024890337
0002a0 f6 aa 33 3b a7 e6 72 bc a9 e9 f9 3b 65 b8 b2 bd
       0.0027415133 -0.0148255 0.0076267314 -0.08726577
0002b0 e1 05 76 3c 16 a4 38 bd 26 46 06 3e 77 b0 e6 3c
       0.01501605 -0.04507836 0.13112697 0.028160317
0002c0 bf e6 95 3c b0 de 00 bd 27 fc 80 3c 85 d8 22 bd
       0.018298505 -0.03146237 0.015745236 -0.03975727
0002d0 e4 77 cd bc c0 6c 07 bc be e8 d5 bc 0d 18 ed bb
       -0.025081582 -0.008265674 -0.026111957 -0.007235533
0002e0 55 7f 1a bc 2e cf b1 3d b5 c9 5f bd a8 ff e7 3c
       -0.009429772 0.086820945 -0.054635722 0.028320149
0002f0 d8 e2 0e 3c 0a 9b 57 bc a7 80 ca bb 4c 25 ab 3c
       0.008721076 -0.013159523 -0.0061798873 0.020891808
000300 00 df b5 3c 11 31 2d 3c b7 39 1c bb c7 6e 14 3d
       0.022201061 0.01057078 -0.0023838112 0.036238458
000310 a9 3e 3f 3c ee bd be 3c 7d cf 70 bd b6 de 8d 3c
       0.011672654 0.023283925 -0.058791626 0.01731811
000320 95 85 a5 ba 2e fe 9c 3c eb 00 d9 bb 6e 2e a7 bc
       -0.0012628312 0.019164171 -0.006622424 -0.020407882
000330 1b ba 01 3c 42 64 1c bd d2 53 f3 bc d7 24 bf bb
       0.007917906 -0.03818155 -0.029703055 -0.005833249
000340 7a d7 d8 bc 09 69 0c 3d cb b2 d1 3d 61 62 a0 3e
       -0.026469935 0.034279857 0.1023918 0.31325057
000350 43 ea 5b 3e df 1c 25 3c 2c b0 8a bd 91 eb dd bb
       0.21476083 0.010077684 -0.06771883 -0.0067724665
000360 4c 17 bd 3c 7e 3e de 3c ac 38 37 3c 72 7e e6 bb
       0.023082398 0.027129408 0.011182945 -0.0070341164
000370 43 27 12 bd 2e 27 68 bb 8c 89 66 3c 9c f0 1f bd
       -0.035681974 -0.0035423744 0.01407088 -0.039047822
000380 84 0e 79 bc 89 19 ab 3d 73 ae ff bb a0 40 90 bc
       -0.015201215 0.0835448 -0.0078027784 -0.01760894
000390 54 37 08 bf 62 14 80 3c 5f 62 c3 bc 06 d1 64 3c
       -0.53209424 0.01563472 -0.023850618 0.013965851
0003a0 6e 57 48 3c 81 6b cf bc 4c 0e 13 3d 0e e1 0b 3d
       0.012227876 -0.025319817 0.035902306 0.034150176
0003b0 6b 40 d9 bb ef 0b d7 bb a8 60 f4 3b 44 d7 94 bc
       -0.0066299937 -0.006562702 0.0074578114 -0.018169053
0003c0 70 32 d2 bd 12 7c 50 3b e1 37 37 3c 6e 7b 1b bc
       -0.102635264 0.0031812233 0.011182756 -0.009489877
0003d0 f0 90 e3 3c 79 44 ee bb fd 42 06 bd 2f e3 ca bc
       0.027779073 -0.007271346 -0.03277873 -0.024766533
0003e0 0a ac 28 bc 09 63 c5 bc bf 69 20 bd 19 86 b0 bc
       -0.010294924 -0.024095075 -0.039163347 -0.021548318
0003f0 d1 86 89 3b 9b b7 da bb d2 a9 75 3c d4 37 ca 3c
       0.0041969796 -0.0066747195 0.014994102 0.024684824

autoencoder.encoder.2.bias f4 [64]
000000 89 ee d0 bc a4 5e 17 bc f8 a1 28 be 17 21 6e bd
       -0.025504367 -0.009238873 -0.16468036 -0.058137026
000010 66 bc 2a 3f fd 86 68 3c aa 8c 9c bd 1f 53 7f bc
       0.66693723 0.01419234 -0.07644017 -0.015583782
000020 a4 31 67 be a0 d4 1c bd ea 05 0c 3f b5 11 ad bd
       -0.2257753 -0.038288713 0.54696524 -0.08450643
000030 17 eb f6 bd a7 f5 ab bb dd 02 db 3d 4e f1 5b bd
       -0.120565586 -0.00524779 0.106939055 -0.053696923
000040 24 ea 03 3f 02 bd 94 3e f7 b8 36 bd 04 28 76 bd
       0.51529145 0.29050452 -0.04460999 -0.060096756
000050 23 90 dc bc 76 00 91 be a4 40 f3 bd 60 03 aa bc
       -0.026924198 -0.28320664 -0.118775636 -0.020753562
000060 94 d9 c2 bc 11 ba bb bd 8f a7 24 3f 9e ae 3c bc
       -0.02378539 -0.09166349 0.64318174 -0.011516241
000070 2a 0b da bc fa f2 08 be 2a 87 af bd 85 12 de bb
       -0.026616652 -0.13373938 -0.085707024 -0.00677711
000080 d5 b7 cf 3e 84 e6 1d bd 4e 71 a2 bc fc 34 e7 bc
       0.4056994 -0.038549915 -0.019829419 -0.028223507
000090 62 b0 a4 bd 89 af 1b bc be 5d 4a bd bc 59 4d bd
       -0.08041455 -0.0095023 -0.049405806 -0.050134405
0000a0 a7 84 3e bb 12 ce 65 3e bb d4 93 bd b9 c7 b5 3e
       -0.0029070766 0.22441891 -0.072183095 0.3550394
0000b0 9e 76 bc bc c1 4d 5f bd d7 14 ab ba 0b d3 79 be
       -0.02300578 -0.05451751 -0.0013052475 -0.24396913
0000c0 02 83 a0 bb 73 f2 72 bb 64 5e 5e 3c ff c7 40 bd
       -0.00489843 -0.003707078 0.013572309 -0.04706573
0000d0 b2 99 f9 3e 2e fb 19 3e 16 d1 3f bd 8c f3 09 be
       0.48750073 0.15037224 -0.04683026 -0.13471812
0000e0 42 c0 e7 bd 0c 60 86 bc 15 43 ae bd 11 0f f2 3e
       -0.11315967 -0.01640322 -0.08508889 0.4727712
0000f0 7c cb 09 bd 2c ae 86 bd 19 c4 bd bd 86 6d bd bd
       -0.033641323 -0.065761894 -0.09265918 -0.092494056

autoencoder.encoder.4.weight f4 [128, 64]
000000 4a 10 05 3d 0a a2 4f 3c ad 8a 69 bd e7 42 59 bc
       0.032486238 0.0126729105 -0.057017017 -0.01326058
000010 7a be 94 3c b4 dc eb 3b 5c 66 cc bc e0 3a fc bc
       0.018157233 0.0071979407 -0.024951153 -0.030789793
000020 7a 3d 2a bd c3 6f 5e 3c 48 63 84 3d 22 08 62 3c
       -0.041562535 0.013576451 0.06464249 0.013795884
000030 50 99 d6 3a e9 0f 21 3d bc d4 11 bd 92 f9 19 3b
       0.0016372595 0.039321814 -0.03560327 0.0023494703
000040 55 89 3e 3d 0e db 4a 3e 4e 30 19 3d b3 56 1d 3d
       0.04651769 0.19810125 0.037399583 0.03841276
000050 a3 39 86 bc ed 86 2d bd 7c 0f a1 bd 79 0c 7c bd
       -0.016384905 -0.042365003 -0.078642815 -0.061535332
000060 f0 05 80 3c 42 8e 43 bd 0c aa 4c 3d 63 f5 a7 bb
       0.015627831 -0.04774309 0.049966857 -0.005125688
000070 5d f4 89 3c be 40 6a bd 88 82 85 bd 63 21 8a 3c
       0.016840154 -0.05719065 -0.065190375 0.016861623
000080 35 65 dd bb 5a 3f 0e 3d 63 ab f6 3c 6e c6 81 bd
       -0.0067564496 0.034728386 0.03011102 -0.063366756
000090 1c a2 e5 bb a3 39 31 bd 5f 2f 3d bd 05 d8 fe 3c
       -0.0070078503 -0.043267857 -0.046187755 0.031108866
0000a0 fe 13 fc bc fb 55 08 be f9 45 2a bd 02 83 d7 bc
       -0.030771252 -0.13314049 -0.041570637 -0.026307587
0000b0 82 8f 8e 39 fc 82 0f 3b 98 89 a8 3c a0 e2 46 39
       0.00027191272 0.002189814 0.020573422 0.00018967176
0000c0 88 19 de 3c b4 13 c2 bc fa 77 90 3d 0e ca de bc
       0.027111784 -0.023691036 0.07054134 -0.027195957
0000d0 c1 a2 ce 3d 04 ae 30 3e b2 ac 0d 3d c5 32 07 3e
       0.100896366 0.17253882 0.034588523 0.13202961
0000e0 b8 bd 88 bd ed d5 5f 3d 03 d5 7f 3c 29 65 1d 3d
       -0.06676811 0.054647375 0.015614751 0.038426552
0000f0 ac b3 47 bc 4b 80 76 bc f6 6f 1d 3d fd 0b c0 3d
       -0.012188833 -0.015045236 0.038436852 0.093772866
000100 c6 83 36 bd 50 e4 6e bc 1d 6b b5 bd 79 7c 05 bb
       -0.044559263 -0.014580801 -0.08858321 -0.002036838
000110 8e 6e 53 bc 63 eb 91 b8 09 77 1f 3c a9 99 26 3d
       -0.012904776 -6.957983e-05 0.00973297 0.040673885
000120 e7 48 88 bd 55 40 4a 3d 81 df 19 3d 08 42 44 3d
       -0.0665453 0.049377758 0.037566666 0.047914535
000130 78 33 aa 3a 83 54 56 bd d9 03 c3 bc 34 a6 72 bc
       0.001298531 -0.05232669 -0.023805546 -0.014810134
000140 4e 77 db 3d 89 36 be 3d 1f cf 48 bc b9 a8 6e bd
       0.10716115 0.092877455 -0.012256413 -0.058266375
000150 f8 34 98 bc a0 dc 06 bc c4 47 d8 bd d7 13 52 3c
       -0.018579945 -0.008231312 -0.10560563 0.012822113
000160 a0 8e 97 3c cf 1e 8a bd f2 1e 80 3d 1e 51 e7 bb
       0.018500626 -0.067441575 0.06255902 -0.0070592305
000170 c9 37 4b bd 1c 8f 3a 3d 29 6a d1 3c ab ed 2f 3d
       -0.049613748 0.045546636 0.025563316 0.042951267
000180 b1 e7 c3 bc eb c5 fb bc 7f 38 41 3d e2 e1 26 bc
       -0.02391419 -0.030734023 0.04717302 -0.010185691
000190 dd f3 ee bc 9a ec 24 bd 6c 6b ac bc d1 85 a7 3c
       -0.029169017 -0.040264703 -0.021047316 0.02044955
0001a0 57 1f 28 3d 62 ef 01 bd 5c a1 9a ba 69 6d 0d 3c
       0.041045513 -0.031722434 -0.0011797356 0.008632042
0001b0 14 88 ab bc 77 53 00 bd 6f bb d9 3b 08 ea ea bc
       -0.02093891 -0.0313296 0.0066446583 -0.028676048
0001c0 ad 0b 8a 3c 3a 23 b6 bd 00 17 5c 3d 37 3c 16 bd
       0.01685127 -0.08893438 0.053732872 -0.03667852
0001d0 75 cf 54 bd 10 42 04 3e 20 f3 32 3d 78 62 cd bd
       -0.05195566 0.12915826 0.043688893 -0.10028547
0001e0 37 e9 d5 3c bb 59 fa 3c bc 77 4c 3d bf f5 93 3d
       0.026112182 0.030560365 0.049918875 0.07224607
0001f0 4d 84 33 bd 5f 9a 6c bd bc 0f 16 3d 40 8e 82 bd
       -0.043827344 -0.057764407 0.0366361 -0.06374788
000200 6e 40 44 bd 6f 5d 27 3d 78 c2 63 3d 28 5d b0 3b
       -0.047913007 0.04086059 0.05560538 0.005382199
000210 e1 a7 8e 3c e5 2c af 3c 36 1e be bb ec e1 8e 3c
       0.017414035 0.021383712 -0.0058019413 0.017441712
000220 60 8a 22 3c 94 27 6a bc 40 08 2c 3b 89 da b3 3d
       0.0099206865 -0.014291663 0.0026250035 0.08781917
000230 9a 77 a5 3c b6 0e 35 bc 11 ac aa 3d 53 2f f5 bc
       0.020198632 -0.011050871 0.083336 -0.029929793
000240 d8 63 3b 3d 8b c3 04 3c be 06 f2 3b 34 91 4c 3c
       0.045749515 0.008103262 0.0073860576 0.012485791
000250 0a d0 b0 bc 39 f1 8f 3c 25 84 d3 bd 80 62 9e 3c
       -0.021583576 0.017571079 -0.10327939 0.019334078
000260 69 6f 21 3c b6 89 35 bd c8 9d 5e 3d f2 20 df bc
       0.009853222 -0.044320785 0.05434969 -0.02723739
000270 01 3e 6c 3b f5 8f 0e bd 46 de bc bc 2e 2f 9f bc
       0.00360477 -0.034805257 -0.023055207 -0.019431677
000280 82 84 b1 3d 95 49 f3 3c be ff 5d 3d f6 8e 16 bd
       0.08667852 0.029698173 0.054198973 -0.036757432
000290 51 bb 09 bc 28 0c 41 bd 7a f1 c3 3c 81 a8 95 3d
       -0.008406476 -0.047130734 0.023918856 0.0730753
0002a0 68 ce 04 3d 74 3a 10 bd ec 12 c6 bd 61 64 d4 3d
       0.032423407 -0.035211995 -0.09671578 0.10370708
0002b0 e6 2b 49 bd 9e af 32 bd 62 eb 84 3d ef 6e 06 3d
       -0.04911413 -0.043624513 0.06490208 0.03282064
0002c0 80 c3 00 bc 81 ca 08 be 06 ad 95 3c 08 f9 e5 bc
       -0.007859111 -0.13358499 0.01827098 -0.028072849
0002d0 f8 ad d6 3d d4 d5 66 3c 37 b6 df 3c 07 d6 26 3d
       0.10482401 0.014089067 0.027308566 0.040731456
0002e0 c7 e5 b3 bb 08 ff ce bc dd 90 28 bd 8a 68 ae 3c
       -0.005490038 -0.025268093 -0.041153777 0.021290082
0002f0 f8 10 e0 bc af e1 30 bd 53 14 03 3d 57 3a 52 bd
       -0.027351841 -0.04318398 0.032001805 -0.05132517
000300 57 54 1a bd 71 ed 73 3d f2 28 86 bd 05 15 da 3c
       -0.03767809 0.059552614 -0.065507784 0.026621351
000310 60 65 b0 3d 2a 6d 2f 3d 5f 76 17 3c c9 b8 58 3c
       0.08613086 0.042828716 0.00924453 0.01322765
000320 1a 04 86 b9 e2 53 ad bc 66 06 a6 3c a6 4e cc bd
       -0.00025561528 -0.021158163 0.020266723 -0.099759385
000330 d3 ab c9 3c b4 7e b9 3a 0e 7e 09 3e 29 49 7b bc
       0.024618065 0.001415214 0.13426992 -0.015337267
000340 32 ca 80 3d 8a 87 cd 3b 9f 9f 43 3d 73 41 0a bc
       0.06288566 0.006272261 0.04775965 -0.008438456
000350 10 28 8a 3d 16 6c ed 3d 07 b2 11 be 34 5b 7c bc
       0.067459226 0.115928814 -0.14228068 -0.015402604
000360 50 c2 89 3c 28 88 7d bd ce d5 f0 3c a8 35 a5 3b
       0.016816288 -0.061897427 0.029398825 0.0050417967
000370 a8 27 3e bd 2d 94 df bd 7b 58 80 3d a4 76 0c bd
       -0.046424538 -0.10916934 0.06266876 -0.034292832
000380 73 05 14 3d 2a 8b 9d 3c ea eb 09 3a 52 8f 1b bd
       0.03613801 0.019231398 0.0005261289 -0.037978478
000390 27 08 52 3c bc e0 0a bd 02 13 b0 3a 64 ee 76 3d
       0.0128193265 -0.03390573 0.0013433399 0.06028594
0003a0 15 0a 8d 3c e7 94 f3 3c 85 8c 08 bd 15 d8 0d 3e
       0.017216722 0.029734088 -0.033337135 0.1385196
0003b0 95 ae 2e 3d 0b 23 20 3c 53 3c 2a 3d 7e a0 f1 3b
       0.042646963 0.00977398 0.041561436 0.0073738685
0003c0 e1 dd 80 3a a2 d4 35 bd 82 05 41 3c 65 5c 25 3d
       0.000983175 -0.044392236 0.011781098 0.040371317
0003d0 3a b1 8c 3d d4 63 54 bd 39 22 90 3c 12 3b 04 3e
       0.06869741 -0.051853016 0.017594444 0.12913159
0003e0 d3 c1 a1 bc dc 74 fb 3c d2 fc 97 3d 64 c0 3f 3d
       -0.019745743 0.030695371 0.074212685 0.046814337
0003f0 da cb 9d bc 3e 0d 68 ba 58 66 6e 3a c6 3f 2d bb
       -0.019262243 -0.0008852071 0.000909423 -0.0026435717

autoencoder.encoder.4.bias f4 [128]
000000 98 52 63 3c 7d 18 1a 3d 61 de 14 3d 34 49 00 bd
       0.013874672 0.03762101 0.03634489 -0.031319812
000010 4a 19 8b bd 76 60 6f 3d 5b 99 16 3c 81 56 23 3d
       -0.06791933 0.0584416 0.009191836 0.03987742
000020 f3 23 7e ba 6a 69 2f 3f 50 ea 02 3e fd d3 11 bd
       -0.0009694688 0.68520224 0.12784696 -0.03560256
000030 02 99 f4 3c 1a 8d 53 3d 70 78 8a bb 7b 16 9c 3d
       0.029858116 0.051648237 -0.004225783 0.07621475
000040 0b b9 99 3d c1 b8 70 3e 35 eb 3f 3d ec 66 fb bc
       0.07505997 0.23507978 0.04685517 -0.030688725
000050 9c 70 b2 bc fa 6f af bb f3 51 aa 3d 0e 90 91 3d
       -0.021782212 -0.005353925 0.08316412 0.071075544
000060 3b 72 4a 3d a9 7e d4 3c 9a a9 cc bd 54 92 ed bf
       0.049425345 0.025939303 -0.099932864 -1.8560281
000070 f8 d3 96 3c 0b fd e8 3c d8 92 f2 bc 7f ca ef bc
       0.018411621 0.028440973 -0.029611036 -0.029271362
000080 54 ff 4a bd 98 a3 36 3d 51 98 ce 3d 0b 7e 3e bc
       -0.049559906 0.04458961 0.10087646 -0.011626731
000090 21 0f 84 bc ce 19 49 3c 6b bc c0 3d f3 45 c9 3d
       -0.016120495 0.012274219 0.09410938 0.09827795
0000a0 75 09 ed 3d 0a 16 b8 bc 53 61 2f bd 9c 82 40 bd
       0.115740694 -0.022471447 -0.042817425 -0.04699956
0000b0 e6 76 19 bd e5 12 58 bd a9 76 b2 3d ce 62 3e bd
       -0.037466906 -0.052752394 0.08714039 -0.046480946
0000c0 96 53 17 bc 70 37 a5 3c b2 86 6d 3d 50 da a0 bc
       -0.009236237 0.020168036 0.057989784 -0.01963535
0000d0 bb 2c 9e 3b 36 4e e2 3d 7c 9e 64 3d 7d ee 70 3b
       0.0048271096 0.11050074 0.055815205 0.0036763244
0000e0 1e 9d 00 be 79 41 36 bd 73 46 28 3d d9 6b 7a bd
       -0.12559935 -0.044496033 0.04108281 -0.061138008
0000f0 bb a1 2b bc 0b c6 56 bc 92 c9 9d bd 8d 10 23 bd
       -0.010475571 -0.013108741 -0.07704462 -0.039810706
000100 b6 16 12 bd d9 35 77 bd 05 8c 96 bb 7d 35 c6 3c
       -0.03566619 -0.060354088 -0.0045943283 0.024195427
000110 92 aa 1e bd 97 ad 05 be a1 37 07 3c 57 02 cd 3b
       -0.038736887 -0.130545 0.008253009 0.0062563824
000120 07 95 38 3d 92 d0 4c 3d 2c 82 02 bc 4c 69 11 be
       0.045064 0.050003596 -0.007965606 -0.14200324
000130 2a e5 45 bd c5 e1 fc 3c 43 e9 14 bd 35 23 a4 3d
       -0.04831425 0.030869374 -0.03635527 0.08014528
000140 1c 5a 31 3d 7d 6e dc 3d 22 e2 69 3b 2f c8 64 3d
       0.043298826 0.107632615 0.0035687764 0.055854972
000150 d8 d3 9a 3d 0a 75 bf 3c 25 48 ee 3c aa f6 f4 b9
       0.07559937 0.023371238 0.029087136 -0.00046723086
000160 4c 32 2d 3d cc 32 c4 3c 38 1a 2a bd 68 68 9a bc
       0.042284295 0.023950003 -0.04152891 -0.018848613
000170 22 c8 56 bd 05 a7 9a 3c 72 24 c1 3d 7b 22 86 3d
       -0.052436955 0.01887847 0.094307795 0.065495454
000180 3f 8e c8 bd d1 a4 1f bd 90 07 45 bc 6a 1e cf 3a
       -0.09792756 -0.03897554 -0.012025729 0.0015801911
000190 a9 4e 8c bd 68 15 89 bc 4f 69 23 3d b5 c1 2b bc
       -0.06850941 -0.01673384 0.039895352 -0.010483195
0001a0 45 36 d0 bb 07 3b 0b 3c 7f 8b d3 3c 42 6b 44 bd
       -0.0063541257 0.00849796 0.025823353 -0.04795385
0001b0 1f c0 4b 3a 44 ab 31 bd 5d 8a 98 3d 12 d0 bd bb
       0.0007772464 -0.043376222 0.07448266 -0.005792626
0001c0 71 d6 2b 3c be a0 4e bd b5 1f 32 3d ce bd 63 3d
       0.0104881385 -0.050446264 0.04348727 0.055600934
0001d0 9a eb fa 3b 5a 25 11 be 27 88 89 bc 16 09 49 bd
       0.0076574804 -0.14174405 -0.016788555 -0.04908093
0001e0 dc 7e 1f 3d 51 2b 54 3d 3d f5 0b 3d 82 6d b4 3c
       0.038939342 0.051799122 0.034169424 0.022024874
0001f0 93 15 2f 3e 2e 8e a4 3c b6 28 81 ba 8c 49 41 3c
       0.17098074 0.020087328 -0.0009854052 0.01179732

autoencoder.decoder.0.weight f4 [64, 128]
000000 37 f4 16 bd 61 f2 ec bc fc df 18 3d b1 1b 41 3d
       -0.036853995 -0.028924169 0.037322983 0.04714555
000010 03 73 ab bd 5c 40 63 3d bb 89 5b 3b 6c aa 3e bd
       -0.08371546 0.0554813 0.0033498842 -0.046549246
000020 5c c8 cd bc fd 48 98 bd bf e0 10 bd fa b6 3d 3d
       -0.025119953 -0.074357964 -0.035370585 0.04631708
000030 4c 44 b2 3d e4 a6 84 3c c8 51 6e 3d a6 e4 5b 3d
       0.08704433 0.01619286 0.05818346 0.053684853
000040 c2 38 8d 3c 05 57 8c 3d 2a 39 59 3d f6 63 a5 bb
       0.017238978 0.06852535 0.05303303 -0.0050473167
000050 79 85 55 3a 9c 96 90 bc cf fc 93 3d 69 c9 75 bc
       0.0008145194 -0.017649941 0.07225954 -0.015001633
000060 c6 0e 84 bc 52 27 b4 bd 82 6a 1e bd 4d 2a 85 3d
       -0.016120326 -0.08796562 -0.038675793 0.06502209
000070 95 97 98 bb 7d 8f 82 3d 9e 0c 8e 3d de bb 2d 3c
       -0.004656742 0.063750245 0.06936 0.010603873
000080 32 87 1f 3d a4 7c 19 bd 00 3e 81 3d a0 d6 27 3d
       0.03894729 -0.037472382 0.06310654 0.040976167
000090 c5 ab 03 bd f8 de 59 bd 32 6e 93 3d 22 5c e1 3b
       -0.032146234 -0.053191155 0.071987525 0.006877438
0000a0 f7 7e 94 3d 3f ac ce bc f3 f3 20 3d 62 b2 1b bd
       0.07250779 -0.025228618 0.039295148 -0.038011916
0000b0 ce 1f 68 3d e8 e7 fd bb 6f aa 88 bd 58 84 e2 3c
       0.056670956 -0.0077485926 -0.06673133 0.027650997
0000c0 71 3a 0a bd 70 09 06 bd f4 1f 8b 3c b9 21 ac 3c
       -0.03374714 -0.032723844 0.01698301 0.021012174
0000d0 bd fa 56 3c 1e a2 fa bc c0 0b f5 bc 15 95 7c bd
       0.013121304 -0.030594882 -0.02991283 -0.061665613
0000e0 ef b4 13 bc fb 92 69 bc 7c 00 74 bc bc 1e 40 3d
       -0.009015306 -0.014256234 -0.014892694 0.04690431
0000f0 87 b2 60 3d a1 73 e8 3c 1b e1 ef 3c ff d4 67 bd
       0.054857757 0.028375449 0.029282143 -0.056599613
000100 2a 74 37 3d 0d 7a 1c bd 61 07 88 bd 5c 83 56 3d
       0.044788517 -0.038202334 -0.066420324 0.052371368
000110 8b 0b 7d 3d 19 ae 90 bd 1e 20 05 3d 55 5d dc ba
       0.061778586 -0.070644565 0.032501332 -0.0016812483
000120 72 22 a5 bc 68 b0 1b 3d a9 2d 98 3d 77 b7 b6 3c
       -0.020158026 0.03801003 0.07430584 0.02230428
000130 08 e3 9f 3d 95 d9 0a 3d 17 aa a7 3b 86 92 95 bd
       0.07806975 0.03389891 0.005116712 -0.07303338
000140 65 0a 9b 3d 58 74 a8 3c 69 02 5f 3d 30 b0 92 3d
       0.07570342 0.02056329 0.054445658 0.07162511
000150 62 eb 4b 3d 6a 39 8f 3d 73 ad c4 3b 7c 7b 51 bd
       0.049785025 0.06993373 0.006002122 -0.051143155
000160 c8 ed a4 bd e0 22 60 3d 20 c5 68 3c ff 52 2f bd
       -0.08053166 0.05472076 0.0142071545 -0.04280376
000170 2e 26 66 3d 7c de 93 3d fb 51 92 3d b1 fa 87 bc
       0.056188755 0.0722017 0.07144543 -0.016599031
000180 2b 2b 72 bd dc d7 a3 3d 14 f6 0c 3d 41 59 b4 3c
       -0.0591232 0.08000156 0.034414366 0.022015216
000190 93 60 70 3d 6c a9 af bd ee 43 30 bc 84 2a b5 3b
       0.05868585 -0.085772365 -0.010758383 0.00552875
0001a0 d3 7f 58 3d b4 52 b6 3b 78 46 f8 3b e0 f5 8b bd
       0.052856278 0.005564058 0.00757676 -0.06834006
0001b0 ee 01 a8 bd 25 98 8b bd c2 59 a1 3d 99 2c ef bc
       -0.08203493 -0.06816129 0.07878448 -0.02919607
0001c0 56 45 e4 3c 68 b3 1e bd 98 de 61 3b 8b 69 80 3d
       0.027865093 -0.038745314 0.0034464952 0.06270131
0001d0 83 5e e3 3c 1d 6c 3f 3d 6b f4 ce bc 6f 82 6d bc
       0.027755028 0.046733964 -0.025263032 -0.01449643
0001e0 af 1a bb bc cd 5e 6f 3c 7c 05 1b 3d 87 11 ae 3d
       -0.022839872 0.014610005 0.037847027 0.08499437
0001f0 85 c1 99 3c 7d a7 65 3d e8 5a 91 3d 14 7d 83 3d
       0.018769035 0.056067932 0.07097417 0.06420341
000200 9e 26 e5 3c 6e 2e d6 bc 31 a0 dd bc ae 75 ad bd
       0.027972516 -0.026145186 -0.027053924 -0.08469711
000210 5b 2f a7 bd 48 af 38 3b 63 5e 8c bd ce 97 99 3d
       -0.08163329 0.0028180648 -0.0685394 0.074996576
000220 e6 95 9c bd 85 28 85 3d 11 37 50 bd 2b 98 af bd
       -0.07645778 0.06501869 -0.050833765 -0.085739456
000230 7e f2 b5 3c 45 f8 ae 3d 6d 7c 57 3d bd 6f a5 bd
       0.022210356 0.085434474 0.052608896 -0.08077953
000240 4a 44 5d bd 53 3a b3 3c ef cb df 3c e5 64 0d bd
       -0.054020204 0.021878397 0.027318923 -0.03452005
000250 4e c0 b2 bc 38 68 44 bd c8 51 80 bd a7 1a da bb
       -0.021820214 -0.047950953 -0.062655985 -0.0066560092
000260 5b 24 f7 bc d5 27 f6 bc bf 1c 8a bd e3 7f 7a 3d
       -0.030168703 -0.03004829 -0.06743764 0.06115712
000270 9e d7 0e 3d 75 eb 22 3b 6a a6 97 bd ab 94 55 3d
       0.034873597 0.0024859582 -0.07404788 0.052143734
000280 ca d1 a4 bc 67 5e 17 3d 43 8d 7d 3c ff 6d ad bd
       -0.020119566 0.036955263 0.015475574 -0.08468246
000290 b0 24 8b 3d 60 fd 7f 3d 3d 6d 7a bd f6 64 a1 bd
       0.06794107 0.062497497 -0.061139334 -0.07880585
0002a0 fd 09 db bc 8b 67 a8 3d 82 ce 11 bd c7 be 61 3c
       -0.026738161 0.08222874 -0.03559733 0.013778395
0002b0 81 07 bf 3b 0d 76 ea 3b 76 6b 56 3c ac 6a 1c 3d
       0.005829752 0.007155186 0.013087144 0.038187668
0002c0 76 ca a7 3c a5 b5 b8 3b b1 b0 ab 3d f8 5b 94 bd
       0.020482283 0.005636888 0.083833106 -0.07244104
0002d0 59 f8 59 bd 2b 55 da bc ec 98 4c bd 54 f0 2a bd
       -0.05321536 -0.02665194 -0.049950525 -0.0417331
0002e0 23 bd a6 3d 1b 74 a3 3b 56 f7 21 3d ca 0d 8a bd
       0.08141544 0.004988206 0.03954252 -0.06740911
0002f0 88 07 cb bc 12 6d b2 3d 1b a4 8e bd a8 22 c0 3c
       -0.024783865 0.0871221 -0.069648944 0.023454025
000300 39 df b1 3c 22 60 d0 bc 13 eb 77 b9 96 52 98 3d
       0.021712886 -0.025436465 -0.00023643328 0.07437627
000310 ff a5 99 3d 82 85 31 bd 17 9c cb bc 82 35 b3 3d
       0.07502364 -0.043340214 -0.024854703 0.0875044
000320 50 9c 35 bc 7e 1f 1d bd 60 b8 6c bc 2e ec 96 bd
       -0.011084631 -0.03836011 -0.014448255 -0.073692665
000330 1c 92 ef bb db 15 bd bc 70 3f 9c 3d 7a ec 21 3d
       -0.0073111188 -0.02308171 0.07629287 0.039532162
000340 6c 58 8a 3d 81 50 b3 3d dc 12 1c 3d bd 2e eb 3c
       0.067551464 0.08755589 0.038103923 0.02870881
000350 59 77 a9 3d 6f bb 9f bd 1d 19 26 3c 5d 5d ad bd
       0.08274717 -0.07799422 0.010137823 -0.08465073
000360 57 39 20 3d f1 f9 3f 3d ff dd b2 3d 8e 7a a4 3d
       0.039117184 0.046869222 0.08733749 0.08031188
000370 0d 28 11 3b 93 78 d0 bc b1 fc cc 3b 1d 01 09 bc
       0.0022149116 -0.02544812 0.006255709 -0.008362082
000380 10 cb 72 3d c5 d8 e4 3b a7 ed fd 3c 94 3e f4 3c
       0.059275687 0.0069838488 0.03099711 0.029814996
000390 10 95 7f bd 87 a9 8a 3d 9a 9d 36 3d 1c f8 3d bd
       -0.062398016 0.06770616 0.044583894 -0.046379194
0003a0 8b cd 84 3d 20 95 41 bd 1e ce 4f bc c5 82 a5 bd
       0.06484517 -0.047261357 -0.0126834195 -0.08081583
0003b0 b9 fc d3 bc c3 11 40 3d 30 d6 fc 3c 12 51 53 bd
       -0.025877343 0.04689194 0.030863851 -0.051590987
0003c0 62 0c b1 3d aa 7a 00 bd 85 f2 02 3c 46 a4 49 bd
       0.0864494 -0.03136698 0.0079923915 -0.04922893
0003d0 ba d3 e5 bc 04 11 e7 bc c0 9f c4 3c 76 5d 90 bd
       -0.02805506 -0.028206356 0.024001956 -0.07049076
0003e0 f0 8a 1d 3d 83 f6 18 bb 41 6f b6 bc eb ef 9a 3d
       0.03846258 -0.0023340292 -0.022269847 0.07565292
0003f0 94 0b 78 3d b5 0a 00 bd d2 cf 83 bd 29 ff 4b 3d
       0.060557917 -0.03126021 -0.06436123 0.049803887

autoencoder.decoder.0.bias f4 [64]
000000 b4 d1 9b bc ec 3f e0 bc 82 e3 57 3c b1 3c 95 3d
       -0.019020893 -0.02737423 0.013176801 0.072869666
000010 99 4f 23 bc ac 49 35 3c c5 e3 9e bd 5e f5 f4 3c
       -0.009967708 0.011064928 -0.07758287 0.029902156
000020 62 c2 a6 3d ea da 6a 3d 78 fb 9e bd c9 2a 23 3d
       0.08142544 0.05733768 -0.077628076 0.039835725
000030 2b 09 b1 bd fd 2b ed 3b 8b 53 4f bd ab 4e 28 bb
       -0.08644327 0.00723791 -0.050616782 -0.0025681655
000040 d4 7a cc bc de 0f 93 bd cc da 88 3c 21 6e a6 bd
       -0.024960913 -0.07180761 0.016705893 -0.08126474
000050 7e 30 a1 bd e3 a8 48 bd 73 12 5b 3c a1 63 ab bd
       -0.07870577 -0.048989188 0.013371098 -0.08368612
000060 d5 59 af 3d 9f 90 99 bd c1 6d 44 bd 7c 82 78 3d
       0.08562056 -0.074982874 -0.047956232 0.060671315
000070 43 d3 ae ba 06 eb 98 bb c9 43 84 bd 61 2a 6c 3d
       -0.0013338107 -0.004666689 -0.064582415 0.057657603
000080 41 00 3d 3d db c6 21 3d f4 20 4f bd 5b 35 69 3d
       0.04614282 0.039496284 -0.050568536 0.05693565
000090 98 c6 05 3a 1d 45 ed 3c b8 db 85 3d 5b 3b 86 3c
       0.000510314 0.02896362 0.06536049 0.016385725
0000a0 1d 05 79 3d b8 41 94 bd 99 98 51 bd 85 a5 a4 3d
       0.060795892 -0.07239097 -0.05117092 0.08039383
0000b0 7c 9d 6a bd 69 0b 87 bd d2 8e a6 3d fc 25 76 bd
       -0.057279095 -0.06593973 0.081327096 -0.06009482
0000c0 8a 26 a6 bd 28 57 f3 3c 34 06 58 3c 10 e0 05 bd
       -0.081128195 0.029704645 0.013185073 -0.032684386
0000d0 7a da 91 bd 1b 45 86 3d f4 68 13 bd f7 a8 9f 3d
       -0.07121749 0.065561496 -0.035988763 0.07795899
0000e0 78 9b b1 bd 21 35 9c 3d a0 57 9a bd 8d 7f ac bd
       -0.086722314 0.07627321 -0.075362444 -0.08422766
0000f0 36 97 a8 3c 5e 92 40 bd 29 cf 46 bc 5a fd 9e 3d
       0.020579915 -0.047014587 -0.012134352 0.07763167

autoencoder.decoder.2.weight f4 [128, 64]
000000 00 8d 92 ba 26 05 bc bd 10 88 c8 3c 04 1c c0 bd
       -0.0011180937 -0.091806695 0.024478942 -0.093803436
000010 f0 c0 db bc 90 00 fc 3c 0c 43 5d bd f4 3b ca 3d
       -0.026825398 0.030761987 -0.05401902 0.098747164
000020 60 33 07 bd e0 67 67 3d 94 45 09 bd 60 0e a7 bc
       -0.03300798 0.056495547 -0.03351362 -0.020392597
000030 00 3c 68 3c c8 d2 ad bd 92 37 e6 3d 78 37 bd bd
       0.014174461 -0.08487469 0.11241068 -0.092390954
000040 2a a5 9a bd 00 20 a2 bd d6 5a df bd 60 3c a5 bb
       -0.07551034 -0.0791626 -0.109059975 -0.0050425977
000050 e0 b2 cd 3b 98 5f ea bd 74 4b 5c bd d0 91 e2 bc
       0.006277427 -0.11444014 -0.053782895 -0.02765742
000060 a4 2d d4 3d 5c 24 63 bd ac cd 3e bd e2 16 f7 3d
       0.10360268 -0.055454597 -0.046582863 0.120649114
000070 64 c9 08 bd 00 9c b3 bd 54 63 c6 3d a8 18 8c 3d
       -0.033395186 -0.08769989 0.09686914 0.0684064
000080 b8 3d ea 3c e0 06 e7 bc d0 2f fd bd 98 a5 b3 bc
       0.028593883 -0.02820152 -0.12362635 -0.021929547
000090 ec b0 e2 bd f0 08 30 3c 28 52 cf bc 30 02 f6 bd
       -0.110689014 0.010744318 -0.02530773 -0.12012136
0000a0 88 55 f5 3d 7a 69 ae 3d 80 5e 7c 3d 5e b7 fb bd
       0.119792044 0.08516212 0.06161356 -0.12290834
0000b0 ae 94 d4 3d 00 4a 70 3d f8 3b eb 3d d6 03 f1 bd
       0.10379921 0.058664322 0.114860475 -0.1176831
0000c0 46 ab 95 3d 4e 8d a2 bd 00 10 fc 39 20 d3 d5 3b
       0.073080584 -0.07937108 0.00048077106 0.006525412
0000d0 72 44 c5 3d 84 04 52 3d 7c 14 b7 3d be f7 c3 bd
       0.096321955 0.051273838 0.08939454 -0.095687374
0000e0 54 f4 3b 3d 78 16 93 bd a8 56 9b 3d c0 86 13 3d
       0.045887306 -0.0718202 0.07584888 0.03601718
0000f0 3a 39 8f bd 26 7c b8 3d f2 9b c0 bd c4 79 74 bd
       -0.06993337 0.090080544 -0.09404744 -0.059686437
000100 30 c5 1c bd cc 92 a9 bd 6e 99 98 3d 72 a2 aa bd
       -0.03827399 -0.082799524 0.074511394 -0.08331765
000110 f0 5a 2b bd ba 3d e7 bd e4 9b ac bd e8 73 50 3d
       -0.04183477 -0.1129107 -0.08428171 0.050891787
000120 68 2d 78 3d d4 34 43 3d c4 8a 57 3d a2 7e cd bd
       0.060590178 0.047657803 0.05262257 -0.10033919
000130 2c 8c 1a bd 90 09 2f bd 6c 12 93 bd 98 3b b6 3c
       -0.037731335 -0.04273373 -0.07181248 0.022245213
000140 68 f1 e5 3c 94 83 69 3d 5c c8 2b 3d a0 eb 93 bb
       0.028069213 0.05701025 0.041939124 -0.0045141727
000150 60 6e a6 3b b2 4d bc bd 88 95 a6 bc dc 95 5e 3d
       0.0050790757 -0.09194507 -0.020334974 0.054342136
000160 74 cc fb 3d 38 1d 6f bd fa d7 90 3d 58 eb ac bc
       0.12294856 -0.058377475 0.07072444 -0.021108314
000170 a0 56 7f bd 20 69 4b 3c 0c 0f 11 bd d0 a7 00 bd
       -0.06233847 0.0124152005 -0.03541474 -0.03141004
000180 10 06 72 bd 10 8a 52 bd c2 c4 96 bd 8e b0 c1 bd
       -0.059087813 -0.051401198 -0.07361747 -0.09457503
000190 3a 4f 84 bd 30 a0 8a bd a8 df a7 3d 14 e8 a9 3d
       -0.06460424 -0.067688346 0.08196956 0.082962185
0001a0 bc 3c f3 3d e8 e3 d0 bd b2 8f c1 3d 14 12 cc 3d
       0.118768185 -0.1019972 0.09451236 0.09964386
0001b0 92 61 d0 bd 54 02 4a bd e4 41 fd 3d 80 80 ab 3c
       -0.1017486 -0.049318627 0.12366083 0.020935297
0001c0 20 2a 02 3c 94 51 92 3d a4 6b f2 3d d8 e1 85 bc
       0.007944614 0.07144466 0.11836937 -0.016343042
0001d0 e0 c7 bc 3d 88 ee c5 3d 5a c1 8e bd 4c 0d a8 bd
       0.09217811 0.09664637 -0.06970473 -0.08205661
0001e0 e8 be a8 bc 3a 37 b0 bd 70 84 d1 bd e6 6b b8 3d
       -0.020598844 -0.08604284 -0.102303386 0.09004955
0001f0 c6 60 ea bd 56 6d d0 bd bc 05 f7 3d a6 4d e8 3d
       -0.11444239 -0.10177104 0.120616406 0.11342935
000200 d0 a0 d5 bd f6 8e ee 3d 40 d5 bc bc 16 1a ec bd
       -0.10431063 0.116483614 -0.023050904 -0.11528413
000210 38 c2 03 3d 2a 2b d5 bd c0 fe 47 3b 44 17 8f bd
       0.032167643 -0.104086235 0.0030516833 -0.069868594
000220 ac ea 70 bd 40 c7 0a 3b 3e a8 be bd a8 b0 b1 3d
       -0.05881755 0.002117589 -0.093094334 0.08676273
000230 d4 42 f0 bd 24 da ea bd 5e 40 f1 3d 32 4e a5 3d
       -0.117314965 -0.11467388 0.11779855 0.08071555
000240 68 33 83 bd 08 2c c4 bc 90 c3 45 3d 74 49 a0 bd
       -0.06406289 -0.023946777 0.048282206 -0.0782651
000250 f0 e6 06 bc 28 ad ae bc 00 78 40 3a 46 82 ee 3d
       -0.008233771 -0.021322802 0.00073421 0.116459414
000260 3e e8 df bd cc 1c 3f bd c0 33 a7 3d e4 32 63 3d
       -0.109329686 -0.046658322 0.081641674 0.055468455
000270 14 91 a3 3d 7c cd 05 3d 00 a8 ac 3c 40 ad ff bb
       0.07986656 0.03266667 0.021076202 -0.0078026354
000280 e8 bd f7 3c 1e 51 8d 3d 00 44 54 bb 08 49 6a bd
       0.030241922 0.069002375 -0.0032389164 -0.057198554
000290 04 23 fa bd 90 24 78 3c f8 af de 3d 62 1b a2 3d
       -0.1221371 0.015145436 0.10873407 0.07915379
0002a0 9c f1 af 3d f2 45 d6 3d b8 83 c9 bc de 1d e4 bd
       0.08591005 0.1046256 -0.024598941 -0.11138509
0002b0 00 fc c8 3d b0 2d 02 bc 32 4a f3 bd f2 42 95 bd
       0.0981369 -0.007945463 -0.11879386 -0.072881594
0002c0 a8 f0 8e bd 68 62 cc 3c 82 9f 93 3d 58 78 43 3d
       -0.06979495 0.024949268 0.07208158 0.04772219
0002d0 b8 68 eb 3d 80 fa 2b 3c 9e 2b 89 3d f8 74 e5 3c
       0.11494583 0.010496736 0.066977724 0.028009877
0002e0 d4 84 8a 3d a8 0b f4 bc 02 85 a7 bd 40 14 1b 3d
       0.06763616 -0.029790714 -0.08179666 0.03786111
0002f0 00 64 72 bb 10 91 26 3c c0 63 7c 3d 70 3c 79 bd
       -0.0036985874 0.0101664215 0.061618567 -0.060848653
000300 80 5f 1e 3b 10 3f c9 bd f8 95 36 3d 64 95 b2 bd
       0.002416581 -0.09826481 0.044576615 -0.087199
000310 5c 7c b2 bd 08 dc 98 bd 00 88 18 39 96 6e f6 3d
       -0.08715126 -0.07463843 0.00014546514 0.12032811
000320 30 03 f3 3d b2 1e f8 bd c6 39 d5 bd 24 9a 06 3d
       0.11865842 -0.1211523 -0.1041141 0.032861844
000330 38 4b ab bd 38 29 9f 3d 20 01 80 bc 3c ae 22 bd
       -0.08363956 0.07771534 -0.015625536 -0.039716944
000340 aa 5c cd bd e8 d3 ef bc 2c ac 23 bd 80 8a 7c 3c
       -0.1002744 -0.02927585 -0.039959118 0.01541388
000350 74 6b f1 bd c0 8f 68 3c de e5 c2 3d b0 51 ac bd
       -0.11788073 0.014194429 0.095165 -0.08414018
000360 38 55 e5 bc 84 09 54 3d e8 4e e2 bc d2 d0 f3 3d
       -0.027994737 0.051766887 -0.027625516 0.11905064
000370 94 a5 52 bd 1e d2 c8 3d 76 1a f2 bd f6 50 b1 3d
       -0.05142744 0.09805702 -0.11821453 0.0865802
000380 c8 24 dc 3c 76 95 a7 bd 76 fa 9c bd 24 5e 83 3d
       0.026873007 -0.08182804 -0.07664959 0.0641444
000390 74 d0 e4 3d 08 e3 22 bd 8c d5 58 bd 80 72 95 bc
       0.11172572 -0.039767295 -0.05293803 -0.018243074
0003a0 b4 04 0f bd e4 3f f6 bd 90 d9 e4 3d 44 65 f3 bd
       -0.034916595 -0.12023905 0.11174309 -0.11884549
0003b0 68 dd 6c bd 52 09 ef bd 5e 6b e3 bd 8c ef 05 3d
       -0.057828337 -0.116716996 -0.11104463 0.032699153
0003c0 f8 cf 8b 3d 94 82 92 bd d0 54 30 3d a4 7a f5 3d
       0.06826776 -0.07153812 0.043049634 0.119862825
0003d0 ea 43 8b bd fc 4d a2 3d d0 86 73 bc b2 83 81 bd
       -0.06800063 0.079250306 -0.014863685 -0.06323947
0003e0 6c 46 92 bd 2a 32 ea bd 00 b4 f0 3d b0 91 6e bc
       -0.07142338 -0.11435349 0.11753082 -0.014561102
0003f0 b8 63 4f 3d 00 53 e8 3b d0 1b 22 3d 94 c1 d1 bd
       0.05063221 0.0070899725 0.039577305 -0.10242

autoencoder.decoder.2.bias f4 [128]
000000 54 ad c8 3d 50 03 c4 3c 3a 28 f8 3d 54 8b f9 bd
       0.09798685 0.02392736 0.121170476 -0.12184778
000010 16 a8 a0 bd 18 70 e7 3d d0 43 d3 bc 18 2a be bd
       -0.0784456 0.11300677 -0.025789171 -0.092853725
000020 c8 6d e4 bd 94 bb 47 bd f0 b4 8a bd d4 71 13 bd
       -0.111537516 -0.048762873 -0.06772792 -0.035997227
000030 b6 65 86 bd ec cc 67 bd e6 80 ae bd f8 ef 02 bd
       -0.065623686 -0.056591913 -0.08520679 -0.031967133
000040 10 bb 75 bd 00 3a e4 39 40 51 94 bb 80 2a 59 3c
       -0.05999285 0.00043530762 -0.0045262873 0.013254762
000050 20 69 b1 bb e6 b4 c9 3d 00 09 1a ba 40 51 01 3c
       -0.005414143 0.09848957 -0.0005875975 0.007892907
000060 7e cf 9a bd 30 87 e1 bc 5e 43 e4 3d 8e 0b f6 3d
       -0.07559107 -0.027530283 0.11145662 0.12013923
000070 10 3f 6d bc d8 4d 02 3d b6 01 fc 3d c0 03 fd bb
       -0.014480367 0.03181252 0.12305014 -0.0077213943
000080 a0 ed ae bd 20 c8 8d bc b2 9a c0 bd 56 96 f2 3d
       -0.08541417 -0.017307341 -0.09404506 0.118450806
000090 e0 12 ed bc 4e a6 fb 3d f4 1e a1 bd ee c2 a0 3d
       -0.028939664 0.122875795 -0.07867232 0.0784968
0000a0 c4 44 31 3d fc 14 e8 3d 00 ba f1 3b 88 29 14 bd
       0.04327847 0.113321275 0.0073769093 -0.03617242
0000b0 e2 2f f5 bd 78 da fd 3c b0 4e a0 3c 80 0e 63 bd
       -0.119720235 0.030987963 0.019568771 -0.05543375
0000c0 20 02 73 bd d0 96 ad bd 66 fe e8 3d 8e 3c fb bd
       -0.0593282 -0.08476031 0.11376648 -0.12267409
0000d0 ba d5 85 bd 16 38 e8 3d 28 27 74 bd 3c 89 87 3d
       -0.06534906 0.113388225 -0.059607655 0.06617972
0000e0 44 e3 b5 bd a8 32 ee 3d 9a 3b f7 3d 6c 6a 91 3d
       -0.08881238 0.11630756 0.12071915 0.071003765
0000f0 68 ac 17 bd 18 b6 3b 3d 14 0c ef 3d 7c 86 01 3d
       -0.037029654 0.045827955 0.116722256 0.031622395
000100 00 ba b2 b9 fc 72 e0 3d d8 39 ac 3d 6e f3 d0 bd
       -0.00034089386 0.109594315 0.0840947 -0.102026805
000110 f8 7c 25 bd 30 b8 69 3d cc ac af bd 68 56 ff bc
       -0.040402383 0.05706042 -0.0857788 -0.031169131
000120 5c ef e4 bd ac 53 bf bd cc 56 84 3d d0 10 6d 3c
       -0.11178467 -0.09342131 0.06461868 0.01446934
000130 fc 20 49 3d d4 e1 60 bd 24 2c 73 bd 06 99 a3 3d
       0.049103722 -0.054902866 -0.059368268 0.07988171
000140 1e 81 d0 3d b2 56 d2 bd ac 14 22 bd 8a bf d4 bd
       0.10180877 -0.10270442 -0.039570495 -0.10388096
000150 5e bd 8f 3d 00 a1 16 3d 72 fe d4 3d 94 c9 a1 3d
       0.07018541 0.036774635 0.10400094 0.07899776
000160 e0 bf 12 3d c4 dd ec 3d e0 85 8a bc f6 b9 f2 bd
       0.035827518 0.11565736 -0.01690954 -0.118518755
000170 c0 3b fe 3d 5c 5b f8 3d de f3 96 bd 0a 48 de 3d
       0.1241374 0.121268004 -0.07370733 0.10853584
000180 6c 29 b1 bd 76 d1 e4 bd 10 38 ce 3c d4 b6 5c 3d
       -0.08650479 -0.11172764 0.025173217 0.053885296
000190 0e ce da 3d d0 ea d7 3d 08 ad df 3d d6 c6 f8 bd
       0.10683833 0.10542834 0.10921675 -0.121473
0001a0 dc d0 07 bd 40 4b 08 bd 22 05 c1 3d 14 d0 48 bd
       -0.03315817 -0.03327489 0.09424807 -0.049026564
0001b0 b8 c2 db bd 10 56 dd 3c 8e ac 8f bd 42 7c fc bd
       -0.10730499 0.027018577 -0.07015334 -0.12328388
0001c0 7c d3 23 3d c4 d8 a1 3d b0 e8 af bd 40 56 f8 3d
       0.03999661 0.07902673 -0.085893035 0.12125826
0001d0 70 cc 02 bd 06 03 fc 3d c4 d2 0a bd c0 0e b6 3c
       -0.031933248 0.12305264 -0.033892408 0.02222383
0001e0 06 0c ad 3d 60 52 7d bc 2c 95 23 bd 1c ba 88 3d
       0.08449559 -0.015461534 -0.039937183 0.066761225
0001f0 d6 76 ce 3d 20 46 3b 3c e0 a7 1a 3d 78 51 9b 3c
       0.1008126 0.011430293 0.037757754 0.018959746
